checkpoint.pth (torch_old, 28641 bytes, 6 tensors)

net.layers.0.weight f4 [64, 37]
00000000: 29a3 69bd d146 53bd d02d 9a3d b272 ddbe
00000010: 3e85 b4be 3fb0 abbe 4f07 15bc 08c7 aa3d
00000020: 7516 8e3d 3ffc a33d 4b76 4cbe a510 d0bd
00000030: d9b1 d2bd e822 87bd 8d31 963e 4619 26bf
00000040: b725 cf3e 1084 553e 6352 d2be 4725 79be
00000050: 0795 af3d c1c3 0cbb d88b 2c3e 2301 40be
00000060: 6723 083c 0daa 22be 41a1 f93d 2f81 1dbe
00000070: 7377 f23d 5bb6 8cbe 5dea 3dbe f7da 063b
00000080: 0140 183d ea7f bcbd 34d3 1d3e ef66 02be
00000090: d405 66bd 8e3f 823d 6296 6a3e e4a5 003d
000000a0: 185a 0a3d 76a9 62bd 6687 8fbd 4e74 313d
000000b0: ad6a d1bd 8dc1 57be e927 953c a5fe 99bd
000000c0: 3f93 073d 44a5 a93b 9626 993d 65cf 133e
000000d0: ca27 273c 9eee ae3d 7831 bdbd 5a66 573d
000000e0: c376 e53c 1ca6 21bc b723 053e fcba f1bd
000000f0: e8ad 86be d49c 80bd ba2d 37ba 995b 0d3d
00000100: 05c6 743c 9193 b53d 34be 66be 4bd7 2fbd
00000110: 2ed0 993d 88b5 323e 8185 e13c c14a bdbd
00000120: 8192 aa3e 790f 103c 749a e13d b3dc e53b
00000130: def9 613d b901 4b3e d32f 2dbd 5952 663e
00000140: 4586 6abe 229c 913e d1b7 b2be 5223 86bf
00000150: 770d abbc 75e2 903d 01fb 86bd e0fd bd3d
00000160: 2ea9 8d3e 10bb dfbd a579 e13d 9c25 793d
00000170: c3a9 0e3d d9a7 0d3e 2843 483d 7fba 1c3e
00000180: 5b1c 5fbe 9a12 223e 9c2e 8b3e ba2c b5bd
00000190: 29db 163e b23e 893e 2c91 99be 4598 c4be
000001a0: 8416 c5be e4b5 663e a3cc e93c 26b2 95be
000001b0: 0d9e 8fbe d211 7abd 87ad c5bc cc06 733e
000001c0: f2bf bbbe bc57 2e3e 2b30 1f3e 7763 61bf
000001d0: d488 2bbd 3865 b93c c09e 053e c15d 4b3d
000001e0: 6ccb 1f3e c2ce e3bd 2613 32bd 8c1d 453e
000001f0: ab68 87be 5b63 54be a544 4fbe ba80 6e3e
00000200: edcd 99bd b579 43be e97d ff3d d696 e83d
00000210: a9db b5bd 1281 023d 9b6e 8dbe 4e50 253d
00000220: 847e 473e bc3f 6dbe a71f c33d 532f 073e
00000230: a230 513e 27af 9abc 67a4 353e f25a 883d
00000240: 00f2 a4bc 6715 01bf c6cb 9a3b a7d7 30bd
00000250: 2ed1 a0bd 8751 9dbe 84a3 31bc 9724 11be
00000260: 8592 19bd 7a28 003e bcca 193e b882 8ebc
00000270: 3918 77bf eae0 b1bf e5d3 dcbe f88e 563e
00000280: e8d5 d8bc 54a4 b1be 2320 8fbe 1e90 5abd
00000290: 78ec 37be 747e 22be d545 46bd 80c7 de3c
000002a0: a4fa 0abf f56e 5a3e a90c 0a3e 0385 303c
000002b0: d48b 25bf 6bad 3a3c 7417 0b3c 5a29 253e
000002c0: 5b9d 303b ab6d 5c3d be84 86bd ffd8 523e
000002d0: c0ca 473d cff9 2d3c 2de7 44bd 4eea 02bd
000002e0: aeaa 00bc 19ff 963c a7b0 90bb 525c 5f3d
000002f0: e33d ef3d 281b bc3b e337 fb3e 903e 21bf
00000300: e419 0ebf f95b 66bf 987d 12c0 cda2 9bbd
00000310: 0d32 553c 6736 563d a601 4d3d e250 843d
00000320: df22 373d df35 923d 82cf 843c 7de9 993d
00000330: 6ccd f53c 82b6 113e 6ec3 be3d 7fb7 083e
00000340: bf0f 5a3e 9d72 fe3d 1ed2 3dbc d1f9 023d
00000350: b51a b83d dd4b 093e 352f a63d c8ae fabb
00000360: bf7c 903d e206 9c3d 7c76 e43d ce4c 873d
00000370: 2131 333d 0326 90bb c1c1 983d b7b1 dcbc
00000380: 3ee0 3abd 3ca9 813d ee4f 093e fd33 d0be
00000390: 60db af3d a19e f33c 5c6d 47be 659f 743e
000003a0: 539f 9a3e 0203 07be dc36 b5be 7f84 ba3d
000003b0: aaaf 073f 27dd 88bd 259b 3e3d a797 3ebe
000003c0: bb7e 85bd 8b1d 313e f3b2 e7bc 8eeb 1c3e
000003d0: 5606 71be 2289 1f3d 7b5e 30bc 5ad9 a43d
000003e0: ae12 0e3d 3602 a1be a5b2 28be 9a00 30be
000003f0: 962d 283d 1f89 04be 8436 533a e67d 2dbb
-0.057040367 -0.051581208 0.07528269 -0.43251568 -0.35257906 -0.33532903 -0.009095981 0.083387434
0.06937877 0.080070965 -0.19967 -0.10159425 -0.10287828 -0.06598455 0.2933468 -0.64882314
0.40458462 0.20851159 -0.4107848 -0.24330626 0.085733466 -0.0021478983 0.16850221 -0.18750434
0.008309222 -0.15885182 0.1218896 -0.15381311 0.118391894 -0.27482876 -0.18546434 0.002057729
0.037170414 -0.09204085 0.15412599 -0.12734579 -0.056157902 0.06359778 0.22908929 0.031408206
0.033777326 -0.05533739 -0.07008247 0.043323807 -0.10225425 -0.21069928 0.018207507 -0.07519273
0.03309941 0.005177172 0.07478063 0.14434583 0.010202358 0.08541606 -0.09237951 0.052587844
0.028010732 -0.009866264 0.13001905 -0.118032426 -0.26304555 -0.062799126 -0.000698771 0.034511182
0.01493979 0.08866037 -0.22533494 -0.04292993 0.0751041 0.17452061 0.02752948 -0.09242774
0.333149 0.0087927515 0.11015788 0.007014835 0.055169933 0.19824876 -0.042281937 0.2249235
-0.22902782 0.28439432 -0.34905866 -1.0479529 -0.020880444 0.07074443 -0.06590844 0.092769384
0.27668136 -0.10924351 0.1100953 0.060826883 0.034829866 0.1383356 0.04889217 0.15305518
-0.2178816 0.15827408 0.27183998 -0.088464215 0.1473204 0.26805645 -0.2999357 -0.38397422
-0.3849374 0.22530323 0.028539961 -0.2923748 -0.2805027 -0.06105215 -0.024130596 0.23733062
-0.3666988 0.17025656 0.15545718 -0.88042396 -0.041878536 0.022631273 0.1304884 0.049649958
0.15604943 -0.1112342 -0.043475293 0.19249552 -0.26447043 -0.20741026 -0.2024103 0.23291293
-0.0750998 -0.19089396 0.12475187 0.11356895 -0.088797875 0.031861372 -0.27623448 0.040359788
0.19481856 -0.23168844 0.095275216 0.13201647 0.20428708 -0.018882347 0.17738496 0.066579714
-0.020134926 -0.5042328 0.0047239987 -0.043174412 -0.07852398 -0.30726263 -0.010842208 -0.14174114
-0.037493248 0.1251544 0.15018743 -0.017396316 -0.96521336 -1.3896763 -0.43130413 0.20952976
-0.026469186 -0.34695685 -0.27954206 -0.053360097 -0.179613 -0.1586855 -0.04840644 0.027194738
-0.542887 0.21331389 0.13481392 0.0107739 -0.64666486 0.011393885 0.008489478 0.16129056
0.002694926 0.053815525 -0.06568287 0.2059059 0.04877734 0.010618641 -0.04807203 -0.03196173
-0.007853193 0.018432187 -0.00441559 0.054531403 0.11681726 0.005740542 0.49066076 -0.6298609
-0.55508256 -0.8998409 -2.2889156 -0.07599411 0.013012421 0.052297976 0.0500504 0.0646074
0.04471099 0.07139181 0.016212229 0.075152375 0.03000518 0.14229777 0.09314619 0.13351248
0.21295069 0.124242045 -0.01158574 0.031976525 0.08989469 0.13407846 0.08114473 -0.00765023
0.070550434 0.076185 0.111554116 0.06606446 0.043748025 -0.0043990626 0.074588306 -0.02694021
-0.04562401 0.06331107 0.13409397 -0.40664664 0.08586764 0.029738726 -0.19475311 0.23888929
0.3019968 -0.13184741 -0.35393417 0.09107303 0.5300242 -0.066828065 0.046534676 -0.18612538
-0.065183125 0.17296426 -0.028283572 0.15324232 -0.23537573 0.03894914 -0.010764713 0.08049269
0.034685783 -0.31447 -0.16474397 -0.1718773 0.0410591 -0.12942933 0.00080571347 -0.0026472746

net.layers.0.bias f4 [64]
00000000: 2202 e73d 9292 a3bd 5899 29be 3e96 e2bd
00000010: 53b6 533e 0ace 9f3d b548 debd f17d 053d
00000020: 6bd7 723c 4a55 64be 2627 a23e 73af 453e
00000030: 1356 9a3d d1f2 823e 600e 9ebd 11d6 e8bd
00000040: f634 ef3d 9284 e23b fa71 3cbd 0b27 63be
00000050: e77d 15be 1efa 423d 2f73 173c 903a ac3c
00000060: 810c 06bd ea09 093e 3322 a83c bd13 61be
00000070: 4cff 2d3e 5083 683e 7668 013d 2c33 24be
00000080: 2869 7a3e f717 f2bc 8f09 2dbe 1462 403c
00000090: a676 bfbd 1921 81ba da59 5f3c d0b5 c1bd
000000a0: e53a 4abe 16e8 a4bc 0a9f 693d 64b8 f43d
000000b0: d053 003d d758 0f3c 995e 6d3d 32a5 6ebe
000000c0: 3919 27be 85ce 703d 9a11 8cbe 27c4 923d
000000d0: 87b9 44be d77e c7bd 2984 85bd c7f9 67bd
000000e0: 4abf f63d 624a 563d d4b5 25bd c231 10be
000000f0: 06ac a63d 7522 b93c 2502 a43d e802 cbbb
0.11279704 -0.079869404 -0.16562402 -0.11063813 0.2067502 0.07802971 -0.108537115 0.03259081
0.014821867 -0.2229816 0.31670493 0.1930521 0.075359486 0.2557588 -0.077175856 -0.11368955
0.11680023 0.0069127763 -0.046007134 -0.22182862 -0.14598809 0.04760181 0.0092437705 0.021024019
-0.03272677 0.13382688 0.02052412 -0.21980186 0.1699192 0.22706342 0.031593762 -0.16035146
0.24454176 -0.029552443 -0.16898178 0.011742134 -0.09348802 -0.0009851783 0.013632262 -0.09458506
-0.19749029 -0.020130198 0.057036437 0.11949232 0.03132993 0.008749208 0.057951543 -0.23305205
-0.16318215 0.058790702 -0.2735718 0.07166319 -0.19211398 -0.0974099 -0.06519348 -0.05663469
0.12048204 0.05231703 -0.040456608 -0.14081481 0.081382796 0.022599438 0.080082215 -0.006195415

net.layers.2.weight f4 [64, 64]
00000000: ed1e 88bd e848 903d a0d1 933b 231f 85bd
00000010: 5c78 32be 529a 71be 0396 953b d15e 703c
00000020: 8139 6ebb 2931 d13d 8c25 7fbd 4b82 07bd
00000030: 51e4 e63c dddc ab3d a2db 42bd d9ac 96bd
00000040: d472 1abe f548 05be 2247 4abd b4ce ec3d
00000050: fb58 e2bc 2a7f e9bd 159c 573f beba 69be
00000060: 9a6d 97be 5913 43be f027 f93d 90f9 cf3d
00000070: cedd 84be 53c7 873e 809f bbbe 875b 9c3d
00000080: 7c43 583e 70e9 8ebe 7cce 8ebe fcf5 953e
00000090: 979a 06be 1552 8f3d 8081 c43c 391e dfbd
000000a0: 5b45 55be 536d d0bc 9108 873e 353e 213c
000000b0: 07b4 73be 0771 0c3d 37d8 13be c6a3 973d
000000c0: 7b77 e8bd d6ca 923d 360f 12bd 4e54 69be
000000d0: bcab 74bd 54a0 a03d ee89 bdbe b484 0fbc
000000e0: 6941 d3be 4094 a6be 873e 88be 7da3 973c
000000f0: 0705 08be 8990 0a3f dc97 e73d c069 43bc
00000100: 2769 75bd 2f51 ac3d 4d36 8ebe e5ca 2c3e
00000110: 6d7f 3f3d c706 a73e 01ef 8b3d e924 5a3e
00000120: d822 9abd cf5e 043d 2409 a03c 9b15 b93e
00000130: 1905 31be a001 e83d febb c63d f4db 15bd
00000140: 99b1 98bc 6930 e83c d053 b4bd 2f8e 1fbb
00000150: a33a da3d 9ca7 883e ad06 5b3e 51cd 8dbe
00000160: d95b 713e de60 61bc 04e2 b4be f850 44bf
00000170: d96e 853e 308d 9a3c b89f 453e ab26 05bd
00000180: 9de2 18be 346c cfbe b8bf 783a bb0d 913e
00000190: 245b 5dbe a27a 6b3e d163 a7bd 3885 0fbe
000001a0: c707 ffbd b616 543e 1340 34be 38a4 0abe
000001b0: d62c 373e 8238 b93d 9e4f 3fbd 8cb6 433c
000001c0: 3489 6ebd 5a46 f03d 7cc1 9abd 5321 043e
000001d0: a906 10be cb53 173e adba bebd 6b85 c53d
000001e0: f97e 993c def3 08be 9732 a93e 5717 893d
000001f0: c916 5cbd 1e38 253c 7c2e 69be e6ad 113d
00000200: 6fd1 97be a3dd 93be 37fe 39be a4f8 fc3d
00000210: 8c07 193e e38e 65be ceb4 983c 182f 693c
00000220: 3e14 c4bd c2f9 d7bd fdc6 a8bd c65c d2bd
00000230: ed15 55be 1b1e b33d dc0a aabe 7669 813e
00000240: 9481 cfbd 6965 b3be 1d2c c03c e4c3 94bd
00000250: 77f3 00be adc7 f23c af61 2bbf b393 eebe
00000260: 1bbe f4be 87fe 2c3e c52f 5d3d 0dd3 033e
00000270: 4e6f cabd c4e7 a33e f791 45be 8a45 09bf
00000280: daf5 3f3c ae93 013f a99b 343c 7d7e 89bb
00000290: 1aa6 3c3e bbaf e4bd 4bd5 a73e 56d0 9c3e
000002a0: aa39 b7bd 9f76 293e e95b 013b a75f c13d
000002b0: 9cd2 16be e3d3 343e 299e 2f3e 0b00 abbc
000002c0: 197a 26bb 62d2 98be 1bad 7bbe 80f8 49bf
000002d0: 0c94 9a3d 2893 0b3f 4ba5 9f3d 6240 f0bd
000002e0: 3970 ebbd c1ae 2dbe d7c0 adbc ad3b 43bd
000002f0: 7820 96bc 9d78 30bd 060a 2fbe e748 a0be
00000300: ed4c 71be 1d08 1b3d a5e1 5fbd eb62 2b3e
00000310: e3d1 923d 93d9 2f3e f30d 5fbe 1127 84bd
00000320: 0da8 f3be d016 2b3e 2195 9abd 0840 8d3e
00000330: 980a d5bd 70a3 cf3d 4d49 893d d775 c0bd
00000340: a44d c33c 33a8 24bd cbdc a0bd d6c5 f93b
00000350: fa08 7c3d b29b 423e 9e4c be3e 26ea 7f3e
00000360: 0174 733e 8069 543d 4a7c 1bbe db91 9dbf
00000370: fa79 7e3e f450 01be bca7 833e a521 26be
00000380: 95d6 c0bc 4c43 873c 0831 2ebd d4d8 f6be
00000390: 290e 75be 62e9 b33e 768c d63e 8383 e1bd
000003a0: 37cd c3be fbb1 a03e 1084 e53d 871a 12be
000003b0: a0f3 b73e aee5 31bd 251c 963c e81b 3ebe
000003c0: 7387 83bd 4ad5 2fbe 79e9 c0bd 7b2a 8e3c
000003d0: f40b 163d d68c 13bf d1e0 c13d e6b3 6f3d
000003e0: ea94 c7bd c484 85bd 0c7f a83d 3d05 583b
000003f0: 9efe 29bd a2b5 a73d fee1 5a3d 3ce3 593e
-0.066465236 0.07045156 0.004511073 -0.065000795 -0.17428726 -0.23594025 0.004565002 0.0146710435
-0.0036350193 0.10214455 -0.062291667 -0.03308324 0.028185042 0.08391736 -0.04757274 -0.07357187
-0.15082866 -0.13016112 -0.049384244 0.11562863 -0.02763032 -0.11401208 0.8422254 -0.22825143
-0.29575807 -0.1905035 0.121658206 0.10155022 -0.25950474 0.2651926 -0.36645126 0.07634645
0.21119493 -0.27912474 -0.2789191 0.29289234 -0.13144909 0.06998078 0.023987532 -0.108944364
-0.20827238 -0.025442755 0.26373723 0.0098414915 -0.23799144 0.03428748 -0.14437948 0.07404284
-0.11350914 0.07167594 -0.035659038 -0.22786066 -0.05973409 0.0784308 -0.37019295 -0.008759666
-0.4126084 -0.3253498 -0.26610205 0.018510574 -0.13283168 0.54126793 0.11308262 -0.011927068
-0.059914734 0.08413922 -0.27775803 0.16874273 0.046752382 0.32622358 0.06832696 0.21303143
-0.07526177 0.03231698 0.019535609 0.36149296 -0.17287101 0.11328435 0.097038254 -0.036586717
-0.018639373 0.028343396 -0.088050485 -0.0024346223 0.10655715 0.26690376 0.21389265 -0.27695706
0.23570193 -0.013756005 -0.35328686 -0.7668605 0.26061133 0.018866152 0.19299209 -0.03250758
-0.14930196 -0.4051224 0.00094890175 0.28330788 -0.21616799 0.22996 -0.08173335 -0.14015663
-0.12452655 0.20711789 -0.17602567 -0.13539207 0.17888197 0.09043981 -0.04670679 0.011945378
-0.058236316 0.117321685 -0.075564355 0.12903337 -0.1406504 0.14778058 -0.09312949 0.09644588
0.018737303 -0.13374278 0.3304641 0.06693905 -0.053732667 0.01008418 -0.22771639 0.035566233
-0.29651973 -0.28880033 -0.18163382 0.12352112 0.14944285 -0.22417788 0.018640902 0.014232419
-0.095741734 -0.105456844 -0.08241079 -0.102716014 -0.20809145 0.087459765 -0.3321141 0.25275773
-0.10132137 -0.35038307 0.023458535 -0.07263926 -0.12592874 0.029636228 -0.6694593 -0.4659706
-0.4780129 0.1689397 0.054000635 0.12873478 -0.09884511 0.3201276 -0.19293962 -0.53621733
0.01171633 0.50615966 0.01102344 -0.004195987 0.18422738 -0.111663304 0.32779917 0.30627698
-0.089465454 0.16549157 0.001973862 0.09442072 -0.14728779 0.17658953 0.17150177 -0.020874044
-0.0025402366 -0.2984801 -0.24577753 -0.78894806 0.07547769 0.5452142 0.07795199 -0.1173103
-0.11496014 -0.16961195 -0.021210117 -0.047664333 -0.01832603 -0.043083776 -0.17093667 -0.3130562
-0.23564501 0.037849534 -0.05465855 0.16736953 0.07168939 0.17172842 -0.21782665 -0.06452764
-0.4758915 0.16707921 -0.07547975 0.27587914 -0.10402411 0.10138595 0.06703434 -0.09397476
0.023840733 -0.04019947 -0.07854613 0.007622461 0.061532 0.19004706 0.3716783 0.24991664
0.2377472 0.051858425 -0.15184131 -1.2310137 0.24851218 -0.12628537 0.2571391 -0.16223772
-0.02353982 0.016511582 -0.04252723 -0.48212302 -0.23931183 0.35138994 0.41904038 -0.11011412
-0.38242504 0.31385788 0.112068295 -0.14267932 0.3592806 -0.04343193 0.018323967 -0.18565333
-0.06422319 -0.17171207 -0.094195314 0.01735424 0.036632493 -0.57636774 0.094667085 0.058521174
-0.097452 -0.06519464 0.08227357 0.0032962107 -0.041502587 0.081889406 0.05343818 0.2127809

net.layers.2.bias f4 [64]
00000000: b043 4d3c cbb4 193e d847 f53c 8faa 28be
00000010: a851 703d af3c 22be cd9a d0bd 1d26 63be
00000020: 68cb 7f3e c9b7 1c3f 9dbc 4ebe 150a 9a3e
00000030: 9817 5c3e 87df d7bd 1015 96bc 5510 523e
00000040: d78c 3cbc b651 87be bc63 b1bd 016b 7f3e
00000050: 13b7 2a3e be7a 363f cc14 92be c29d cebd
00000060: df9b 2fbe 21a3 fabd d1cc 033e fa7f 9abd
00000070: 101f 3bbd 9057 cd3e e2ca 723c d558 f2bd
00000080: bd30 dfbc ba6b e03c 769d a63e 9fd3 4dbd
00000090: b3d5 60be ed0f b9be e5ee 693e a596 a23d
000000a0: df64 a9bd dd28 2e3f 70e5 d83e a0df 14be
000000b0: ab97 953e 446d 11be c061 ea3e c039 71be
000000c0: 1547 a93d 5641 eabd 40e5 723d 131c 293f
000000d0: 7a59 3eba 0a74 1fbd 8bf1 083f a527 9ebd
000000e0: 4617 43be 4d2f 2dbe 6395 cfbc 0ad9 ddbd
000000f0: 480e b63d 2136 ce3e 6b4a f13c 20b3 36bd
0.012528345 0.15010373 0.029941484 -0.16471313 0.058671623 -0.15843461 -0.10185776 -0.22182508
0.24979937 0.61217934 -0.20189138 0.30085817 0.21493375 -0.10540681 -0.01832059 0.20514043
-0.011508188 -0.26429528 -0.08661601 0.24943163 0.166714 0.7128104 -0.28531492 -0.10088684
-0.17149304 -0.122381456 0.128711 -0.07543941 -0.04568392 0.40105867 0.014818879 -0.118333496
-0.02724492 0.027395118 0.32542008 -0.050250646 -0.2195652 -0.36144963 0.22845037 0.079388894
-0.08271193 0.680311 0.42362547 -0.14538431 0.29217276 -0.14201838 0.45777702 -0.23557186
0.08265511 -0.11438243 0.05930066 0.6605846 -0.0007261258 -0.038929023 0.53493565 -0.07722405
-0.19051847 -0.16912575 -0.025339788 -0.108324125 0.08889443 0.40275672 0.02945443 -0.04460442

net.layers.4.weight f4 [4, 64]
00000000: 3737 093f b6f0 893e 14a1 983e 4250 8ebe
00000010: 0c0a be3e a7d0 7fbd 9a68 c83d e8f1 ebbd
00000020: 805c a93d 3c86 373e f027 6cbe 5177 723e
00000030: 1976 753e c86c 20be 4d1e 243e fbc4 043e
00000040: a061 3cbc d5e6 1bbe aa2a db3e 9915 943e
00000050: efd9 fb3c a2be 5e3e 6397 86be 3543 efbc
00000060: 658e 153e 30a0 a8bd c82e 73bf c624 88bb
00000070: 0dc4 d53e da52 9b3e af6e 27bf 45a0 243e
00000080: a333 20bf ffb9 633e 0297 133e 1b2d 093f
00000090: e1f3 32be 4def c6bd 598e 653d c636 bd3e
000000a0: 36b8 413e dd66 513e 01dc 473e 9b6e 923d
000000b0: a513 233e e44a 0cbe 94ca 4a3e 2f4c fabd
000000c0: 4f90 1b3c 3538 863e 8936 bf3d d881 5c3e
000000d0: 208d 143d 1a38 2b3e 7560 3a3e fbb2 d83c
000000e0: 706b 06bf 5c5d 453e 67f2 07bf f722 7f3c
000000f0: 2a31 3cbf c09c 293e e684 703d f056 423e
00000100: 903c cc3e 54f2 223e 01b7 d63e 023a 92be
00000110: efde ac3e 13d0 6dbd a91e 023f 965b 91be
00000120: cacc 573d 3647 233e c001 ba3d 65bc a13e
00000130: 1b92 b33e 8776 613e 66ab 353e 247a 543e
00000140: 701f dbbd d320 d1ba 5ec3 e43d f9ed 883e
00000150: 8f80 5e3c 1cf9 893e d8b7 93bd f57e d73d
00000160: 7e7e 9e3e d056 93bd 3eb4 1cbe cad9 fd3d
00000170: c9cd 4c3d 2ad8 8f3e d5a3 8a3e 6ad1 093f
00000180: adee c8bd fbd0 cdbc 690d 7f3e a7eb 0f3f
00000190: 1b59 15be 9aaa 15be 7fc2 0e3e 9bb4 ef3e
000001a0: 6cb2 053e 6af2 403e 1ba1 4e3e 2760 863c
000001b0: 5bb3 523d 430c d4bd 6552 313e afde 70bd
000001c0: bebb 903e a86f 013e 3637 8e3e 67a1 1e3e
000001d0: 2a8d b93e cdef 27be 7cfc 263e 031b 873e
000001e0: d0e3 c8bd 96fa 98bd 3979 57be 5a8f 5c3d
000001f0: 152b 65be 2a69 eb3c f612 51bf ab05 e1bd
00000200: 4229 c03e 9d95 e63d 31eb 843e 2af9 99bb
00000210: 409c 1c3f 8041 d13e 374f 6c3d 5d2d bebe
00000220: 16ec 1e3e 27a0 203e 090f bd3d 05fb 463e
00000230: 8599 df3d b4b8 3dbe 4331 be3d 72f3 853e
00000240: 1722 f03c 91bb 88be 906e 31be 24e3 85bb
00000250: d38a b23d 647e 843e 868e 3dbd f6ac e43c
00000260: a208 0a3e 0035 3dbd e91f cc3d 7fd9 09bd
00000270: b845 0d3f d240 9a3e 2e82 033d bdc5 08be
00000280: 4e80 24bf 8f0f ed3e 83f2 143e 2b54 033f
00000290: e44f 7dbe efcb 3abe d41e 3d3e b868 303e
000002a0: b4a0 a03e f345 4c3e 99e7 583e 6763 303d
000002b0: 8b6e 6e3d 1fcd 80be f537 1f3e ff08 883d
000002c0: a577 d63e 9277 3b3d 137e 3f3e 2cdc a23e
000002d0: 2e48 5ebe f82e 773e da00 f73d 5638 9f3e
000002e0: d676 57bd acec b1be 2790 af3e 5a1b d6be
000002f0: 8eaf e1be bc91 1a3e fd13 a0be 566a fabe
00000300: 42dd f73e 0823 c63d b81c 853e b50d 57bd
00000310: a209 5b3e 951d 84be 4162 c53e 0da6 5fbe
00000320: 6d2d 383e 5f08 833e d2d1 dd3d 5cbe 423e
00000330: 12bb 313e bdc3 263e a555 f23e d10d 983d
00000340: 369f 093e 5f70 b5bd 8e7c ce3e fd7a 4a3e
00000350: ef30 973e 64cb 7a3e cb8d 9a3c d27d 893d
00000360: 8a68 e9be 6d26 a5bd a9a2 d2be 321e ee3e
00000370: 660e 993e dfa7 0e3e 9aa8 b33d d4f6 333f
00000380: 2c71 22bf f91b c43e 362b f03b 8f71 c63d
00000390: 7076 cebe aefe 5bbe 98db 6d3e 8f0b b73e
000003a0: d76b 01be 822d 733e 898e b73e 8c15 38be
000003b0: 6d6c 693e 6af0 e4be a263 0a3e 790e 233e
000003c0: 7f25 c0bd 32ae 8ebe a51e a73d 1dda 633e
000003d0: c980 3cbd 8064 84be 511e 573e f16d af3e
000003e0: e6c9 b5be e0aa eebd ca61 34bf 01b9 b23b
000003f0: cbe1 383c f30c 833d b50f bbbe a2d3 ea3e
0.53599876 0.2694146 0.29810393 -0.27795607 0.3711704 -0.062454846 0.09785576 -0.11520749
0.08269596 0.179223 -0.2306211 0.23678328 0.23970832 -0.15666497 0.16027184 0.12965767
-0.011497885 -0.15224774 0.42805988 0.28922728 0.030743567 0.21752408 -0.26287374 -0.029206851
0.146051 -0.08233678 -0.9499326 -0.0041547744 0.41751137 0.30336648 -0.65403265 0.16076763
-0.6257879 0.2223892 0.14413074 0.5358445 -0.17475845 -0.09713612 0.056043956 0.3695585
0.18917927 0.20449395 0.19517519 0.071500026 0.15925463 -0.13700444 0.1980384 -0.12221562
0.009494855 0.26214758 0.09336574 0.21533906 0.0362674 0.1672062 0.18200858 0.026452532
-0.52507687 0.19273895 -0.5310425 0.015572301 -0.7351252 0.16563702 0.05872049 0.18978477
0.39889956 0.15912753 0.41936496 -0.2855988 0.33763835 -0.058059763 0.50828034 -0.28390187
0.052685536 0.15945134 0.09082365 0.31589046 0.35072407 0.22017871 0.17741165 0.20749718
-0.106993556 -0.0015955217 0.11170076 0.2674406 0.013580455 0.26947868 -0.072128 0.10522262
0.3095588 -0.071942925 -0.15303132 0.123950556 0.05000094 0.28094608 0.2707812 0.53835166
-0.09811149 -0.025124064 0.2490746 0.5621895 -0.14584772 -0.1461586 0.13941382 0.4681748
0.13056344 0.18842474 0.20178644 0.01640327 0.051440578 -0.10353901 0.17316587 -0.058806118
0.28268236 0.1264025 0.27776498 0.15491258 0.36240512 -0.1640007 0.16307253 0.26387796
-0.09809077 -0.074696705 -0.21042337 0.05384765 -0.22379716 0.02873667 -0.8166956 -0.10987409
0.37531477 0.11259005 0.25960687 -0.004698892 0.6117592 0.40870285 0.057692733 -0.37143984
0.15519747 0.15686093 0.09231383 0.19431694 0.109179534 -0.1852749 0.0928674 0.26162297
0.02931313 -0.26705602 -0.17327332 -0.004085915 0.08717885 0.25877678 -0.0462785 0.027914505
0.13479856 -0.046193123 0.09967024 -0.033654686 0.5518451 0.3012758 0.03210657 -0.13356681
-0.6425828 0.46300933 0.14545636 0.51300305 -0.24737507 -0.18241857 0.18468791 0.17227447
0.31372607 0.19948559 0.21182097 0.043063547 0.05821089 -0.25156495 0.1554869 0.06642341
0.41888157 0.045768328 0.18700437 0.31808603 -0.21707222 0.24139011 0.12060709 0.31097668
-0.052603565 -0.3475088 0.34289667 -0.41817743 -0.4407925 0.15094656 -0.3126525 -0.48909253
0.48410994 0.096746504 0.25998473 -0.052503306 0.21390393 -0.2580382 0.38551524 -0.21840687
0.17986079 0.25592324 0.10831036 0.19017929 0.17356518 0.16285606 0.47330967 0.0742451
0.1343964 -0.08859324 0.40329403 0.19773479 0.2952952 0.2449165 0.01886644 0.067134514
-0.4558757 -0.0806397 -0.41139725 0.46507412 0.29893798 0.13931225 0.087723926 0.70298505
-0.63453937 0.3830259 0.00732937 0.09689628 -0.40324736 -0.21483871 0.232283 0.35751006
-0.12638794 0.23747829 0.35850933 -0.1797697 0.22795267 -0.4471467 0.1351457 0.1592349
-0.09382152 -0.27867275 0.08160142 0.22251172 -0.046021257 -0.25857925 0.21007659 0.34263566
-0.355056 -0.116536856 -0.70461714 0.005454183 0.011284302 0.06398954 -0.3653542 0.45864588

net.layers.4.bias f4 [4]
00000000: 9457 f73e e99e b23e 2ed3 9c3e 9649 a03e
0.48309004 0.34886864 0.30629867 0.31306142
