checkpoint.pth (torch_old, 28641 bytes, 6 tensors)

net.layers.0.weight f4 [64, 37]
0	0x3c25b837	0.010114721
1	0xbda92098	-0.0825817
2	0x3e2767f3	0.16348247
3	0xbe7f7928	-0.24948561
4	0xbdf4be0e	-0.119503126
5	0xbddb4602	-0.10706712
6	0xbe4ff7ec	-0.20309418
7	0x3e8ed247	0.27894804
8	0xbd836995	-0.064166225
9	0xbdb1e2ec	-0.0868586
10	0x3e3ec7aa	0.18630853
11	0xbf0727e2	-0.5279523
12	0xbd8460e0	-0.0646379
13	0xbe9d6aff	-0.30745694
14	0xbef01a93	-0.46895275
15	0x3e7b918d	0.24567242
16	0xbe5b034c	-0.21387976
17	0x3d87a383	0.06622984
18	0x3dad9b20	0.08476853
19	0xbe897472	-0.26846653
20	0xbc98783c	-0.01861202
21	0x3dded57b	0.10880562
22	0x3e02a159	0.12756862
23	0x3dbd9308	0.092565596
24	0x3c967e87	0.01837088
25	0xbf129a7c	-0.57266974
26	0x3e8e25ee	0.27763313
27	0x3c337748	0.010953732
28	0xbd884cca	-0.06655271
29	0xbe36c841	-0.17849828
30	0xbe83948b	-0.25699267
31	0x3de3cbd3	0.11122861
32	0x3ddf57cf	0.1090542
33	0xbe1d5844	-0.15365702
34	0x3e6afff7	0.22949205
35	0x3c931741	0.017955424
36	0xbdaa7c87	-0.08324533
37	0x3cefa669	0.029254155
38	0x3dbec706	0.093153045
39	0x3e3ce55d	0.1844687
40	0x3d5ba81f	0.05362713
41	0xbe5f2ec0	-0.21795177
42	0x3e2e917a	0.17047682
43	0xbe88ee73	-0.26744422
44	0xbd63ab39	-0.055583213
45	0xbe62a871	-0.22134568
46	0xbf3064d8	-0.68903875
47	0x3d0d10c3	0.034439813
48	0xbd86b4ad	-0.0657743
49	0x3d654e1f	0.055982705
50	0xbd2c7dc5	-0.04211213
51	0xbdc3acd3	-0.09554448
52	0x3d9f07b5	0.07765142
53	0xbd807a11	-0.06273282
54	0x3cd2ab5b	0.025716474
55	0x3d85f315	0.06540505
56	0xbec4a80a	-0.38409454
57	0xbe037f83	-0.1284161
58	0x3e103a52	0.14084747
59	0xbc312af2	-0.010813462
60	0xbe38ae7d	-0.18035312
61	0xbdbd8b38	-0.092550695
62	0x3db2cdab	0.08730634
63	0x3db0647b	0.08612915
64	0xbdfd07f9	-0.12355036
65	0x3e2612fd	0.16218181
66	0x3dc78e2b	0.09743913
67	0x3ce71902	0.028210167
68	0xbe8d7712	-0.27629906
69	0x3e9e08ef	0.3086619
70	0x3d9ce68f	0.07661163
71	0xbdfc09d8	-0.12306565
72	0x3d56fd70	0.05248779
73	0xbc1a26c3	-0.009408656
74	0x3e7d125d	0.24714036
75	0xbd7606bc	-0.060065016
76	0x3e10606e	0.14099285
77	0x3dcfee69	0.10152895
78	0xbd57d8f7	-0.05269715
79	0x3e843b27	0.2582638
80	0x3e458baf	0.19291566
81	0xbddf4eb5	-0.10903684
82	0xbec30559	-0.38090017
83	0xbfa6f1af	-1.3042506
84	0x3d9f6f50	0.07784903
85	0x3da002c4	0.078130275
86	0x3d855f6a	0.065123394
87	0xbe36a56c	-0.17836541
88	0x3d901aa1	0.07036329
89	0xbe088574	-0.13332158
90	0x3c65a3e7	0.014016128
91	0x3e3772fb	0.17914955
92	0x3e23a983	0.15982632
93	0x3cece1f2	0.028916333
94	0x3c8929f0	0.01674363
95	0xbe0bae6d	-0.13640757
96	0x3e0b80c2	0.13623336
97	0xbdbe6678	-0.09296888
98	0xbe3618f2	-0.17782953
99	0x3e3ec76e	0.18630764
100	0x3e704054	0.23462039
101	0xbd612cfe	-0.05497455
102	0xbe5c769a	-0.21529618
103	0x3d3a65ff	0.045507427
104	0xbe928f40	-0.28624916
105	0x3cc68175	0.024231652
106	0x3db01544	0.08597806
107	0x3ddfb3ad	0.10922942
108	0xbe89fe46	-0.26951808
109	0xbc2108f7	-0.009828798
110	0xbd8abeb5	-0.06774656
111	0x3eeb7ab6	0.4599206
112	0xbed87fcc	-0.42285
113	0xbee47268	-0.44618535
114	0xbf0da1c2	-0.5532495
115	0xc0195b24	-2.3961878
116	0x3d907164	0.070528775
117	0x3cb22e6f	0.021750657
118	0x3d05d78e	0.032676272
119	0x3dc1fa5e	0.09471582
120	0xbcf382a0	-0.029725373
121	0xbd035cd4	-0.03207095
122	0x3d38f834	0.04515858
123	0xbcb6546d	-0.022257054
124	0xbc454f82	-0.012042882
125	0xbd4abbeb	-0.04949562
126	0xbcc40728	-0.023929194
127	0xbd4dd4b0	-0.050251663
128	0xbc882ba1	-0.016622366
129	0x3caa687e	0.020801779
130	0x3e0fb7cf	0.14034961
131	0xbca43a73	-0.020047402
132	0x3c9221ae	0.017838325
133	0x3d10383f	0.03520989
134	0x3d3e6276	0.04648062
135	0x3da19e7e	0.07891558
136	0x3cedc45c	0.029024296
137	0xbc968efb	-0.018378725
138	0x3dcc560e	0.09977351
139	0x3e15221f	0.14563797
140	0x3dd2e17b	0.10296913
141	0x3dc3ea81	0.095662124
142	0x3db7203b	0.08941694
143	0x3cdfe77c	0.02733206
144	0x3cf4f7a6	0.029903244
145	0xbd1252d1	-0.03572351
146	0x3a6639b4	0.0008782402
147	0x3c104218	0.0088048205
148	0xbd5a6c09	-0.053325687
149	0xbe5ef344	-0.21772486
150	0xbd9b6a24	-0.07588604
151	0xbd9ce3bf	-0.076606266
152	0xbe019892	-0.12655857
153	0xbd5d0d1f	-0.05396759
154	0x3eb7e062	0.35913378
155	0x3b8e949f	0.004351213
156	0xbe4beb64	-0.19914013
157	0xbf202e20	-0.6257038
158	0xbe4a4b0c	-0.1975519
159	0x3e2ca87d	0.16861148
160	0xbe291ae6	-0.16514167
161	0xbe313a31	-0.17307355
162	0xbf10cec8	-0.56565523
163	0xbd03fb62	-0.03222216
164	0xbe355956	-0.1770986
165	0xbdb440b6	-0.08801405
166	0xbead9d7d	-0.33909217
167	0x3ebcddfc	0.3688811
168	0x3db30ef9	0.0874309
169	0xbe24a659	-0.16079082
170	0xbdcc4068	-0.09973222
171	0xbf0ede3c	-0.5580785
172	0xbf6d24ef	-0.9263448
173	0xbd69dfa4	-0.057098046
174	0x3e8d5382	0.27602774
175	0x3e470e6c	0.19439095
176	0xbe957618	-0.2919166
177	0xbedf3123	-0.43592176
178	0x3ea8926b	0.32924208
179	0xbe72a16d	-0.23694392
180	0x3de3bac0	0.11119604
181	0xbe71f8ed	-0.23630114
182	0xbf091b30	-0.5355711
183	0x3c9cb09b	0.01912718
184	0xbca1a01e	-0.01972967
185	0x3d30cce4	0.04316415
186	0xbc17d656	-0.00926741
187	0x3c5d585b	0.013509835
188	0xbd4177b2	-0.04723329
189	0xbd8dcd34	-0.06923905
190	0x3ed8045f	0.42190835
191	0xbe39c7db	-0.18142645
192	0xbeaddd90	-0.339581
193	0xbed04b14	-0.4068228
194	0xc0071072	-2.1103787
195	0xbc2594d2	-0.010106282
196	0x3d4fed65	0.050763506
197	0xbd35b078	-0.044357747
198	0xbe315b59	-0.17320003
199	0xbd2e795e	-0.042596214
200	0xbd096bab	-0.033549946
201	0x3df41f0a	0.11919983
202	0xbd53ea38	-0.05173704
203	0x3dc579e3	0.09642389
204	0x3df05434	0.117348105
205	0x3df7cbc9	0.12099416
206	0x3db5d706	0.08878903
207	0x3d91ea27	0.07124739
208	0x3e3073dc	0.17231697
209	0x3d3d593b	0.046227675
210	0x3cb5003c	0.022094838
211	0xbd942600	-0.072338104
212	0x3d4c60ff	0.04989719
213	0x3dc9e9da	0.09859057
214	0x3d9d4994	0.076800495
215	0xbb826dbc	-0.0039803665
216	0x3d1f7be0	0.038936496
217	0x3cb364fe	0.021898743
218	0x3d246f34	0.040145114
219	0xbd55676d	-0.052100588
220	0xbbcbc1f5	-0.00621819
221	0x3bcbdbba	0.006221262
222	0x3d3b5b6d	0.045741487
223	0x3bb6c9a1	0.0055782353
224	0xbe32d5dd	-0.17464395
225	0xbdc32f44	-0.095304996
226	0x3e05c290	0.13062501
227	0xbe78f58e	-0.24312422
228	0xbe003512	-0.12520245
229	0x3e4d89e5	0.20072134
230	0xbf114aa7	-0.56754535
231	0xbea3c12a	-0.3198331
232	0xbd212ea4	-0.03935112
233	0x3e2d25a3	0.16908889
234	0x3d333212	0.043748923
235	0x3d8c4589	0.068492
236	0xbe800938	-0.25007033
237	0xbf00ef6f	-0.50365347
238	0x3e621413	0.2207797
239	0x3e18b01b	0.14910929
240	0xbf61e41a	-0.8823868
241	0xbd9832de	-0.07431577
242	0x3edd39f2	0.4320827
243	0xbe61ac24	-0.22038323
244	0xbe925026	-0.28576773
245	0xbe392663	-0.1808105
246	0x3ecd3a18	0.40083385
247	0xbe80b1cf	-0.25135657
248	0xbe10a5f5	-0.14125808
249	0xbdd44a98	-0.1036579
250	0x3e01f0ba	0.12689486
251	0xbe6d7155	-0.23187764
252	0x3d15e9d0	0.036599934
253	0x3d8b4e67	0.068020634
254	0x3df92a2b	0.12166246
255	0xbeab3597	-0.33439323

net.layers.0.bias f4 [64]
0	0x3dc4b864	0.09605482
1	0xbd8f6157	-0.07000988
2	0xbe2173d0	-0.15766835
3	0xbd9297fc	-0.07157895
4	0x3e7454e4	0.23860508
5	0x3c794751	0.015214757
6	0xbda1b33b	-0.078955136
7	0xbc226d4d	-0.009913755
8	0x3dfbc52b	0.12293466
9	0xbe26915a	-0.16266385
10	0x3df55bdb	0.11980411
11	0x3ea1fb88	0.31637216
12	0x3e08f21c	0.13373607
13	0x3e58c387	0.21168338
14	0xbdb9ecef	-0.090783946
15	0xbe0e1ce1	-0.13878204
16	0xbd5ff581	-0.05467749
17	0xbdc21310	-0.09476292
18	0xbd9a530b	-0.075353704
19	0xbe2d90e6	-0.16949806
20	0xbe47bc5e	-0.1950545
21	0x3b3b8afa	0.0028616772
22	0x3caa816b	0.020813664
23	0xbdb4fa79	-0.08836836
24	0xbd5d9037	-0.054092612
25	0x3dde01bc	0.108401746
26	0x3ccb847c	0.024843447
27	0x3d2d30e8	0.04228297
28	0x3deed6a1	0.11662031
29	0x3d0fd387	0.035113838
30	0xbe37787b	-0.17917053
31	0xbe8d22b9	-0.27565554
32	0x3e31817e	0.17334554
33	0x3b2341f4	0.0024911137
34	0xbe28b5a1	-0.16475536
35	0x3d7e198c	0.062036082
36	0xbe0355cb	-0.12825696
37	0x3ce0b9c7	0.027432336
38	0xbd3d584c	-0.046226785
39	0xbe0b84f8	-0.13624942
40	0xbd780a28	-0.06055656
41	0x3a95b54f	0.0011421832
42	0x3cea8508	0.028627887
43	0x3e41aba8	0.18913138
44	0x3be3c9d0	0.006951548
45	0xbdf29a80	-0.11845875
46	0x3db03294	0.08603397
47	0xbe99eb45	-0.3006231
48	0xbe6d6a7a	-0.23185149
49	0xbdb05732	-0.08610381
50	0xbe7be685	-0.24599655
51	0x3db0e65f	0.0863769
52	0xbd5d27ab	-0.05399291
53	0xbe47f55f	-0.19527195
54	0xbdfda7f7	-0.123855524
55	0xbc180674	-0.009278882
56	0x3dd9080f	0.1059724
57	0x3dbb3e51	0.09142745
58	0xbdb11b29	-0.086477585
59	0xbe4829fa	-0.19547263
60	0xbcbb5ec9	-0.022872346
61	0x3d145395	0.036212523
62	0x3d3bc183	0.045838844
63	0x3ce00f88	0.027351156

net.layers.2.weight f4 [64, 64]
0	0xbd820b98	-0.063498676
1	0x3d670ffc	0.05641173
2	0xbe8465b1	-0.25858834
3	0xbeb7cebd	-0.35899916
4	0x3de6f738	0.11277622
5	0x3b2fb046	0.0026807948
6	0xbcf4458f	-0.029818324
7	0x3d88f536	0.06687395
8	0xbc5fde62	-0.01366386
9	0xbeafa35e	-0.34304327
10	0xbddbced5	-0.107328095
11	0xbd9b71cf	-0.07590067
12	0xbd88e747	-0.06684738
13	0xbc443dd6	-0.011977633
14	0xbeae2900	-0.34015656
15	0xbe0e65b7	-0.13905989
16	0xbe473a1a	-0.19455758
17	0xbee84cb7	-0.4537103
18	0xbe0ac702	-0.13552478
19	0xbe23cde4	-0.1599651
20	0xbdd5b3b4	-0.10434666
21	0xbe6585a9	-0.22414269
22	0x3e5aa053	0.21350221
23	0xbdc15f89	-0.0944205
24	0x3e8a0768	0.26958776
25	0xbdd1e45a	-0.10248633
26	0x3e97d25f	0.29652688
27	0x3dfbae7c	0.1228914
28	0x3e14ce72	0.14531878
29	0x3dd1a14d	0.10235844
30	0x3d66b0a6	0.05632081
31	0xbe24c412	-0.1609042
32	0x3e775945	0.24155147
33	0x3ee3995f	0.4445295
34	0x3dca3d9f	0.098750345
35	0xbeaab1c2	-0.33338743
36	0xbc8710ad	-0.016487444
37	0x3b808571	0.0039221575
38	0xbe533283	-0.20624737
39	0xbd413c60	-0.04717672
40	0x3ec5a890	0.38605165
41	0x3e1a01aa	0.15039697
42	0xbe2fcf62	-0.17168954
43	0x3d875e8d	0.06609831
44	0x3ec045df	0.37553307
45	0x3d175495	0.036945898
46	0xbd9e8de7	-0.077419095
47	0x3d732442	0.05936075
48	0xbd9fef96	-0.07809369
49	0xbee2ec92	-0.44321114
50	0xbe318881	-0.17337228
51	0x3f0b8fcd	0.545163
52	0xbf0733f5	-0.52813655
53	0xbe1295d0	-0.14314961
54	0x3d9edf08	0.077573836
55	0x3e995a39	0.29951647
56	0xbe02bb64	-0.12766796
57	0xbdb3e250	-0.087834
58	0xbdc66242	-0.0968671
59	0xbeea29b6	-0.45734948
60	0x3d9782c5	0.07397989
61	0xbe182062	-0.14856103
62	0xbe456857	-0.19278084
63	0x3e548784	0.2075482
64	0x3dc2e1dc	0.095157355
65	0x3d9cda56	0.07658832
66	0x3e5bcbf4	0.2146452
67	0xbdcd8201	-0.10034562
68	0xbc0d4a0e	-0.008623613
69	0x3e0473f2	0.12934855
70	0x3eb67964	0.3563949
71	0x3e1ca959	0.15298976
72	0xbcbcb752	-0.023036633
73	0xbe56b0f2	-0.20965937
74	0xbd272382	-0.040805347
75	0x3f045e10	0.5170603
76	0xbde2fae0	-0.11083007
77	0x3d9a9fa7	0.075499825
78	0xbe07ff75	-0.13281043
79	0xbcef76c4	-0.029231437
80	0x3d9e6057	0.07733219
81	0x3e18d788	0.14925969
82	0xbe22f54e	-0.15913889
83	0xbd28256c	-0.041051313
84	0x3ca44090	0.020050317
85	0x3eda72b4	0.42665637
86	0xbdf02473	-0.11725702
87	0x3bc635ac	0.0060488787
88	0xbe2ae624	-0.16689354
89	0xbd57d490	-0.05269295
90	0x3d58ad72	0.052899785
91	0xbe6c9d83	-0.23106961
92	0x3e949f21	0.29027656
93	0x3f02c1dc	0.51077056
94	0x3cb2e8d3	0.021839535
95	0x3e3e3937	0.18576513
96	0xbe7aafbe	-0.24481103
97	0xbd9b5899	-0.07585258
98	0xbd940a58	-0.072285354
99	0x3e7041af	0.23462556
100	0x3cb1aa2d	0.021687591
101	0xbe29912b	-0.16559283
102	0x3d5c7794	0.053824976
103	0xbdf609cc	-0.12013587
104	0x3d85b8d1	0.065293916
105	0x3e7bb063	0.24579005
106	0x3d94be9e	0.0726292
107	0xbe545094	-0.20733863
108	0xbe5a492a	-0.21316972
109	0x3dd14a10	0.102192044
110	0xbe59d185	-0.21271332
111	0xbca21e33	-0.01978979
112	0xbd8bbcf3	-0.068231486
113	0x3ec71018	0.38879466
114	0xbe3a6002	-0.18200687
115	0x3e36bde4	0.17845875
116	0xbdd49392	-0.10379709
117	0x3ef94d40	0.4869175
118	0xbe9edfac	-0.31030023
119	0x3d550081	0.052002434
120	0xbde5f40c	-0.11228189
121	0xbdbdad67	-0.092615895
122	0x3e437b53	0.19090013
123	0x3e008517	0.1255077
124	0xbdbfe845	-0.09370474
125	0xbdd8fa95	-0.1059467
126	0xbdfda88f	-0.123856656
127	0xbd5b6c88	-0.0535703
128	0xbe7ae8ca	-0.24502864
129	0x3e528d40	0.20561695
130	0x3d393c49	0.045223508
131	0x3ec8b397	0.39199516
132	0xbe422d95	-0.189627
133	0xbdbf73ff	-0.093482964
134	0x3d33a3ad	0.043857265
135	0x3d800336	0.062506124
136	0x3d62204a	0.055206574
137	0xbe019985	-0.1265622
138	0x3e2f115a	0.17096463
139	0xbe1f7691	-0.15572573
140	0x3e469c9c	0.19395679
141	0x3dbfda23	0.09367778
142	0xbf0675f7	-0.5252375
143	0xbe3f312f	-0.18671106
144	0x3ce559b2	0.027996872
145	0xbe6ee183	-0.23328213
146	0x3e451793	0.19247274
147	0x3eadd9fa	0.33955365
148	0x3d193720	0.037406087
149	0x3e02d279	0.12775601
150	0xbcd04340	-0.025422692
151	0x3d53f35b	0.051745754
152	0xbf36f98f	-0.71474546
153	0xbd8dab92	-0.0691749
154	0x3d4b2339	0.049594138
155	0x3d818c5a	0.06325598
156	0xbe544506	-0.20729455
157	0x3e6b2311	0.22962596
158	0xbcff1de6	-0.031142186
159	0xbe92cbe0	-0.2867117
160	0xbdad64ac	-0.08466467
161	0x3e25fadf	0.16208981
162	0xbf110683	-0.5665056
163	0x3e98a2bc	0.29811656
164	0x3d2f48ed	0.042794157
165	0xbf08db6f	-0.5345983
166	0x3f03643b	0.51324815
167	0xbed3e03e	-0.4138202
168	0xbe99a5d8	-0.3000934
169	0x3d76772b	0.06017224
170	0x3d03daf3	0.032191228
171	0xbea27a0e	-0.31733745
172	0xbeb960f1	-0.36206773
173	0xbdc0945b	-0.094032966
174	0x3dc2c139	0.095095105
175	0xbea67b20	-0.32515812
176	0xbec503d6	-0.3847949
177	0x3e508adb	0.20365469
178	0xbf0ba47b	-0.5454785
179	0xbe6aae7e	-0.22918126
180	0x3e98effc	0.29870594
181	0x3ed7658e	0.42069668
182	0xbf5b51bb	-0.85671586
183	0xbe171be7	-0.14756738
184	0xbe153756	-0.1457189
185	0xbe2b764d	-0.16744347
186	0x3d06978f	0.03285938
187	0xbcf1aa94	-0.029500283
188	0xbe92afd5	-0.28649774
189	0x3eb87705	0.36028305
190	0x3e9b5c95	0.30344072
191	0xbd481047	-0.04884365
192	0xbdf20fa0	-0.118193865
193	0xbcde4437	-0.027132137
194	0x3e732dde	0.23747966
195	0x3dcbcd77	0.09951299
196	0x3e666f45	0.22503383
197	0x3def57e7	0.11686688
198	0xbf12ac90	-0.5729456
199	0xbd3c7c82	-0.046017177
200	0xbdf429af	-0.11922013
201	0xbee3231b	-0.4436272
202	0x3cecfb45	0.028928408
203	0x3e100708	0.14065182
204	0xbd56872c	-0.052375004
205	0x3d7f2809	0.06229404
206	0x3df853e9	0.121253796
207	0x3e1a58a9	0.15072884
208	0x3b28eecb	0.0025777097
209	0xbcbf9369	-0.02338572
210	0x3d579fc7	0.05264261
211	0x3d30075e	0.042975776
212	0xbf005064	-0.50122666
213	0xbe9ea7c1	-0.3098736
214	0x3e8d72a4	0.27626526
215	0x3e5ad999	0.2137207
216	0x3eac20b9	0.33618715
217	0xbd6794e2	-0.05653847
218	0xbdbcc21e	-0.092167124
219	0x3be2fbff	0.006927013
220	0x3dadab9f	0.0848
221	0xbf18cdfd	-0.59689313
222	0xbdad082e	-0.08448826
223	0xbd83a9c7	-0.06428867
224	0xbd7d351b	-0.061818223
225	0xbe54a808	-0.20767224
226	0x3df25f92	0.11834635
227	0x3de7bedb	0.113157
228	0xbf06f5d8	-0.5271888
229	0x3ea385c8	0.31938004
230	0x3d909f86	0.07061677
231	0xbe414e0c	-0.18877429
232	0x3d16f8d3	0.03685839
233	0x3e4ab653	0.19796114
234	0xbda48e8a	-0.08035
235	0xbc66f6db	-0.014096941
236	0x3e77f985	0.24216278
237	0x3e6f4d57	0.23369347
238	0xbbf79211	-0.0075552543
239	0xbd243dee	-0.040098123
240	0xbe214dc3	-0.1575232
241	0x3e1f3814	0.15548736
242	0xbe33c8da	-0.17557088
243	0x3dbaa18f	0.09112846
244	0x38740970	5.8182923e-05
245	0xbebfcd55	-0.37461343
246	0x3e91187c	0.28338993
247	0x3d525a86	0.05135586
248	0x3da10bcf	0.078635804
249	0xbd6048b6	-0.054756843
250	0x3b9afa29	0.0047295284
251	0xbec211a8	-0.37904096
252	0xbd1c6fe1	-0.038192634
253	0x3e2eb635	0.17061694
254	0xbd8183a9	-0.0632394
255	0x3e90c5df	0.28275964

net.layers.2.bias f4 [64]
0	0xbe617c35	-0.22020037
1	0x3db13f22	0.0865462
2	0x3cd212a1	0.025643649
3	0xbe424a77	-0.18973719
4	0x3f256811	0.6461192
5	0xbe8f7a3b	-0.28022942
6	0x3e4a3c4e	0.19749567
7	0xbde1d67d	-0.110272385
8	0x3efeb46b	0.49747023
9	0x3f3600a8	0.7109475
10	0x3b580b8a	0.0032965862
11	0x3eb4a3a4	0.35281098
12	0x3e5af503	0.21382527
13	0xbdc8fe19	-0.0981409
14	0xbded6d85	-0.11593155
15	0x3e4e9843	0.2017527
16	0xbccdd3f5	-0.025125483
17	0xbe8a54c7	-0.27017805
18	0xbda93121	-0.08261324
19	0x3ed2e1d9	0.41187933
20	0x3e068879	0.13137998
21	0x3f49c1a1	0.7881108
22	0xbe81b4ca	-0.25333244
23	0xbd83ee33	-0.06441917
24	0xbe3480a5	-0.17627199
25	0xbdeda799	-0.11604232
26	0x3e11893c	0.14212507
27	0xbe1a109b	-0.15045397
28	0x3b47383c	0.0030398509
29	0x3ecbb15d	0.39783755
30	0x3db732f1	0.08945263
31	0xbe37bc2c	-0.17942876
32	0xbe4c419a	-0.199469
33	0x3e2f9389	0.17146124
34	0x3ec72db6	0.38902062
35	0x3d98ce97	0.07461279
36	0xbe1c8cc0	-0.15288067
37	0xbdea8beb	-0.114524685
38	0x3e9ceda3	0.30650052
39	0x3d666913	0.05625255
40	0xbd2d199a	-0.042260744
41	0x3f4453db	0.76690453
42	0x3eaebc55	0.3412806
43	0xbea5549e	-0.3229112
44	0x3ea09dfb	0.3137053
45	0x3c5fcb8d	0.01365937
46	0x3eee7f1c	0.46581352
47	0xbe3b5c33	-0.1829689
48	0x3e1c2e3b	0.1525201
49	0xbe4cd6a1	-0.2000375
50	0x3e162a02	0.14664462
51	0x3f1f5ac3	0.62247866
52	0xbd8a154b	-0.067423426
53	0x3d7ea357	0.06216749
54	0x3f27276e	0.6529454
55	0xbdcf9c44	-0.10137227
56	0xbe83db4b	-0.25753245
57	0xbd2455d2	-0.040120907
58	0xbda3e5dd	-0.08002827
59	0xbe713ce8	-0.2355839
60	0x3d2f3491	0.04277474
61	0x3eebf66d	0.46086445
62	0x3dbd7cb1	0.092522986
63	0xbdf1c2f3	-0.11804762

net.layers.4.weight f4 [4, 64]
0	0xbdcd18d8	-0.10014504
1	0x3e5df91c	0.21677059
2	0xbdde84d0	-0.10865176
3	0xbe442f08	-0.19158566
4	0x3e69b5ee	0.22823307
5	0xbeccc485	-0.39993683
6	0x3e076c54	0.13224918
7	0xbeeffe4d	-0.46873704
8	0x3e1a61f9	0.15076436
9	0x3e61acff	0.22038649
10	0x3efe5ea5	0.49681583
11	0x3e455566	0.19270858
12	0x3e8c1d80	0.27366257
13	0x3e06a009	0.13146986
14	0xbd1c5030	-0.03816241
15	0x3dcc48e8	0.09974843
16	0xbbaf83c8	-0.0053562857
17	0xbe94ba1d	-0.29048243
18	0x3e355c1a	0.17710915
19	0x3e6dcf2f	0.23223566
20	0x3e98fab5	0.29878774
21	0x3e69b80d	0.22824116
22	0xbedfed0e	-0.43735546
23	0x3eb0e134	0.34546816
24	0xbe9a0909	-0.30085018
25	0xbda8a030	-0.08233678
26	0xbea8ecc4	-0.32993138
27	0xbc9adff0	-0.01890561
28	0x3c65ec32	0.014033364
29	0x3e8467e0	0.258605
30	0xbf0e091f	-0.5548267
31	0xbd3b15b7	-0.045675006
32	0xbd828681	-0.06373311
33	0x3e9866a8	0.2976582
34	0x3e23379f	0.15939187
35	0x3f059717	0.5218367
36	0xbe20f11d	-0.15716977
37	0x3e8d7a54	0.2763239
38	0x3d3e8fcf	0.046523865
39	0xbd21dd32	-0.03951759
40	0x3cabfa49	0.020993369
41	0x3e55284d	0.20816155
42	0x3e194778	0.1496867
43	0xbe07df6c	-0.13268822
44	0x3e2fb91b	0.17160456
45	0x3e6189af	0.22025178
46	0x3e425b55	0.18980153
47	0x3dc9baeb	0.09850105
48	0x3eb4b983	0.35297784
49	0x3ee545c1	0.4477978
50	0x3d86ccb0	0.0658201
51	0x3ebd094e	0.3692116
52	0xbd278c54	-0.04090531
53	0x3f3336a6	0.7000526
54	0x3e6bb8d1	0.2301972
55	0x3e1d0a99	0.15336074
56	0xbefd1741	-0.49431804
57	0x3e071d21	0.13194706
58	0xbea85c10	-0.32882738
59	0xbd952d84	-0.07284072
60	0xbed92f2f	-0.4241881
61	0x3e18fe63	0.14940791
62	0x3ea32235	0.31862035
63	0x3f048bc6	0.5177578
64	0xbd5f0201	-0.05444527
65	0x3e1aaca5	0.15104921
66	0x3d82450c	0.06360826
67	0xbcfcb673	-0.030848717
68	0x3e33dc8b	0.17564599
69	0xbe0afd87	-0.13573276
70	0x3e981663	0.2970458
71	0xbe7eb972	-0.2487543
72	0x3e20ab20	0.15690279
73	0x3e2876fd	0.1645164
74	0x3f24f55f	0.64436907
75	0x3e67252f	0.22572778
76	0x3eadf784	0.33977902
77	0x3e204af5	0.15653594
78	0xbad069cf	-0.0015900674
79	0x3e1b4775	0.15163977
80	0xbde2f9d0	-0.11082804
81	0xbde753e2	-0.11295296
82	0xbe2dc9ac	-0.16971463
83	0x3d5e503b	0.054275732
84	0x3edb2463	0.42801198
85	0x3e8baf39	0.27282122
86	0xbebaaaff	-0.36458585
87	0xbd644cf0	-0.055737436
88	0x3e3a50f4	0.18194944
89	0xbd9356d0	-0.071942925
90	0x3e4560a4	0.19275147
91	0xbd98809d	-0.07446406
92	0x3e5d8e6e	0.21636364
93	0x3eb8b012	0.3607183
94	0xbd23face	-0.040034108
95	0x3d694cc5	0.05695798
96	0xbe9f0539	-0.31058672
97	0x3e50c0be	0.20386025
98	0x3e1530c2	0.14569381
99	0x3f1021fa	0.56301844
100	0xbe0d47a1	-0.13796856
101	0xbe4e85ee	-0.20168278
102	0x3e2aac61	0.1666732
103	0x3e0fcbf5	0.14042647
104	0xbdb0a0dd	-0.08624432
105	0x3e5eb53f	0.21748827
106	0x3e85fddf	0.2617025
107	0xbeb3e35e	-0.35134405
108	0x3e5dc005	0.21655281
109	0x3e86279f	0.26202103
110	0x3e24d934	0.16098481
111	0xbceb5fe0	-0.02873224
112	0x3ee47735	0.44622198
113	0x3e82f9fb	0.25581345
114	0x3e0828c7	0.13296805
115	0x3ea012f0	0.31264448
116	0x3f09397a	0.5360333
117	0x3f1c6428	0.61090326
118	0x3e7a4d24	0.2444349
119	0x3efa77d0	0.48919535
120	0xbc8bb106	-0.017052185
121	0x3e98f5a8	0.2987492
122	0x3d68176b	0.056662958
123	0xbdd7f973	-0.105456255
124	0xbec505d1	-0.38481
125	0x3e43797c	0.19089311
126	0xbdf83931	-0.121202834
127	0x3e2faa5e	0.17154834
128	0xbe85fb36	-0.2616822
129	0xbdd92974	-0.1060361
130	0xbe28c844	-0.16482645
131	0x3dcd2874	0.100174814
132	0x3e779f5d	0.24181886
133	0xbb1a8859	-0.0023579805
134	0x3e5ceb63	0.21574168
135	0x3d3e4691	0.046454016
136	0x3e2e8f03	0.17046742
137	0x3e4efae4	0.20212895
138	0x3de5a605	0.11213306
139	0x3e97a857	0.2962062
140	0x3e9bbae2	0.30416018
141	0xbea2db0c	-0.31807745
142	0xbd569ee4	-0.052397624
143	0x3e73793c	0.23776716
144	0x3c8be071	0.017074795
145	0xbeac24f2	-0.33621937
146	0xbee6bde5	-0.45066753
147	0xbd2d6aaf	-0.04233807
148	0xbd3f1c1c	-0.046657667
149	0x3e8be80f	0.27325484
150	0xbe8d0237	-0.27540752
151	0x3e924951	0.2857156
152	0x3f28be7e	0.6591567
153	0xbd019be9	-0.031642828
154	0xbead5a5d	-0.33858004
155	0xbe5208e5	-0.20511205
156	0x3d8c26c7	0.06843334
157	0x3e8ee5cf	0.27909705
158	0xbeceb2a2	-0.4037066
159	0x3d7c8b60	0.061656356
160	0xbf0a5350	-0.54033375
161	0x3e2496c8	0.16073143
162	0x3e697ad8	0.22800767
163	0x3ea23fa3	0.31689176
164	0x3f05f832	0.5233184
165	0xbf2929d0	-0.66079426
166	0x3e0199bd	0.12656303
167	0x3d5994e3	0.053120505
168	0x3e809ab5	0.25118032
169	0x3e785f79	0.2425517
170	0x3e82cda3	0.25547513
171	0xbe8c9970	-0.27460814
172	0x3e86efaf	0.2635474
173	0x3a21a77b	0.0006166619
174	0x3e228256	0.15870032
175	0x3d84281d	0.064529635
176	0x3f35c063	0.70996684
177	0xbdb653fb	-0.08902737
178	0x3d3be7e7	0.045875456
179	0x3ebc0ca7	0.36728403
180	0xbeab6061	-0.3347197
181	0x3ec7499b	0.38923344
182	0x3e18dd4c	0.14928168
183	0x3ec628ca	0.38702995
184	0xbe6e13e9	-0.23249783
185	0x3e905f6b	0.28197798
186	0x3e0ed39b	0.13947909
187	0xbe555cf6	-0.20836243
188	0xbe0555ab	-0.13020961
189	0x3e95d44c	0.29263532
190	0xbe365eeb	-0.17809646
191	0xbec9327e	-0.39296335
192	0x3e6b5c3a	0.229844
193	0xbd906e10	-0.07052243
194	0x3ed97124	0.42469132
195	0xbd441b1e	-0.047877423
196	0x3dedd4f4	0.11612883
197	0xbe7b0433	-0.2451332
198	0x3ea30ffa	0.31848127
199	0x3df2b653	0.11851182
200	0x3e6951c4	0.22785097
201	0x3e878352	0.26467377
202	0x3f13f980	0.5780258
203	0x3dd5f185	0.10446457
204	0x3eac9821	0.33709815
205	0x3e3aa83c	0.18228239
206	0x3d31dcc2	0.04342342
207	0x3da68f5c	0.081328124
208	0x3df4abec	0.11946854
209	0x3ac1337d	0.0014740076
210	0x3e218b3a	0.15775767
211	0x3e6c4296	0.23072276
212	0x3eebcf78	0.46056724
213	0x3e8b1293	0.27162609
214	0xbd0ad0a1	-0.03389037
215	0x3edebf55	0.4350535
216	0xbdc9429e	-0.09827159
217	0xbdbb2e1c	-0.09139654
218	0xbeb8f769	-0.3612626
219	0x3e9d894c	0.30768812
220	0x3ed0ccf3	0.40781364
221	0x3de9e204	0.11420062
222	0xbdc24162	-0.09485127
223	0x3e7e3dbd	0.24828239
224	0xbe47e796	-0.19521937
225	0x3ed29775	0.41131178
226	0x3c273469	0.010205367
227	0x3d9c6a21	0.0763743
228	0xbeb33003	-0.34997568
229	0xbc412989	-0.011789688
230	0x3e52d4cb	0.20588987
231	0x3e85a7a9	0.26104477
232	0xbefe5695	-0.49675432
233	0x3e9ae2c8	0.30251145
234	0x3e9b8428	0.30374265
235	0xbecb7cb6	-0.39743584
236	0x3e80d23d	0.251604
237	0xbe46ef0c	-0.19427127
238	0x3e010437	0.12599264
239	0xbc64744e	-0.013943745
240	0x3d8f023d	0.06982849
241	0xbe8a02f8	-0.2695539
242	0x3e64a48a	0.22328392
243	0x3eb2b3db	0.34902844
244	0x3e72d343	0.23713402
245	0x3e5e8e9a	0.21734086
246	0x3e6dce7e	0.23223302
247	0x3eb15878	0.3463781
248	0xbd76c95e	-0.060250632
249	0x3e053827	0.13009702
250	0xbe0d5387	-0.13801394
251	0xbe868e7f	-0.2628059
252	0xbeddaa6d	-0.43294087
253	0x3e413114	0.18866378
254	0x3ea0203b	0.3127459
255	0x3f27dc2f	0.6557035

net.layers.4.bias f4 [4]
0	0x3f0997c7	0.5374722
1	0x3ec9bfd9	0.3940418
2	0x3e9dc11f	0.30811402
3	0x3ec03ac1	0.37544826
